kinetic_energy.pth (torch, 20585 bytes, 5 tensors)

net.0.weight f4 [64, 1]
0.05159987 0.19519828 -0.31007057 -0.40212095 -0.66778266 -0.9607383 0.2919072 0.14149642
0.5870955 0.935664 -0.07321584 0.8119173 -0.35185662 0.5044791 -0.42779732 0.37389618
-0.10930902 0.30691653 -0.5506616 0.48132634 -0.4035032 -0.028197017 0.5201286 0.47587818
-0.14109556 0.3924271 -0.25330865 -0.81629896 0.019895196 -0.60446393 0.06558527 -0.5990247
0.48976493 0.09875191 -0.27251944 0.6087586 0.15202706 -0.88569665 -0.8888867 -1.0165678
0.054509617 -0.14481719 0.11857235 0.16696964 -0.52033335 0.12504531 -0.7838693 0.2729098
-0.05273362 0.85837656 0.11203243 -0.90135556 -0.4010792 0.5953263 0.08705375 -0.36854407
-0.16948159 -0.9544948 0.20254947 1.0275562 -0.04218328 -0.4923918 0.31948212 -0.9393039
00000000: 635a 533d 0fe2 473e 92c1 9ebe cce2 cdbe
00000010: cef3 2abf f2f2 75bf dc74 953e 70e4 103e
00000020: e44b 163f ad87 6f3f 30f2 95bd d0d9 4f3f
00000030: 8d26 b4be 8b25 013f 4008 dbbe 526f bf3e
00000040: 68dd dfbd 2a24 9d3e 29f8 0cbf 6870 f63e
00000050: f997 cebe 6efd e6bc 2627 053f 4ea6 f33e
00000060: 5b7b 10be 34ec c83e acb1 81be f8f8 50bf
00000070: 40fb a23c 26be 1abf 9251 863d af59 19bf
00000080: 78c2 fa3e 713e ca3d ab87 8bbe 9bd7 1b3f
00000090: fbac 1b3e 04bd 62bf 148e 63bf e51e 82bf
000000a0: 7a45 5f3d f54a 14be 0fd6 f23d 17fa 2a3e
000000b0: 9134 05bf e10b 003e a9ab 48bf d5ba 8b3e
000000c0: 35ff 57bd 91be 5b3f 4271 e53d 3dbf 66bf
000000d0: 415a cdbe 4e67 183f 3d49 b23d cfb1 bcbe
000000e0: 958c 2dbe c559 74bf 2169 4f3e f686 833f
000000f0: 60c8 2cbd c71a fcbe 2993 a33e 3876 70bf

net.0.bias f4 [64]
0.39726546 -0.6023179 -0.1154082 -0.44927368 0.62280047 -0.3476228 -1.0205481 -0.89504886
-0.2602387 -1.042304 -0.75484085 0.13602957 -1.0795892 0.044651195 -0.53848857 0.58282244
-0.45039213 -0.12506461 0.55291665 -1.2249166 0.5771162 0.6282625 0.22399946 0.8071607
-0.5821537 -1.2463133 -1.0273684 -0.3788017 -0.7926357 0.77753466 0.5054497 -1.4685358
-0.96324325 0.6366729 -1.008993 -0.5879327 0.86736137 0.6282538 0.36612523 -0.59302694
0.4869449 -0.07305985 0.6709775 -0.7047568 -0.7531472 0.7851593 0.21581443 -1.0901394
0.60899216 -0.99690634 -0.473602 0.5489607 0.51492035 -1.211987 0.6124146 -1.0317628
0.19331452 0.31220418 -0.7455582 -0.43363038 -0.78251076 0.39874545 -0.42858416 0.6648638
00000000: 6166 cb3e 8231 1abf 225b ecbd 3307 e6be
00000010: da6f 1f3f 9efb b1be 52a1 82bf ec21 65bf
00000020: 023e 85be 386a 85bf 403d 41bf 564b 0b3e
00000030: fb2f 8abf 2ce4 363d 63da 09bf da33 153f
00000040: cc99 e6be f010 00be f28b 0d3f 11ca 9cbf
00000050: e3bd 133f d0d5 203f 1d60 653e 15a2 4e3f
00000060: 0608 15bf 3287 9fbf cf80 83bf 4cf2 c1be
00000070: 2cea 4abf 830c 473f 2765 013f fbf8 bbbf
00000080: 1c97 76bf fffc 223f af26 81bf c282 16bf
00000090: 650b 5e3f 3ed5 203f c474 bb3e 9dd0 17bf
000000a0: d850 f93e 67a0 95bd 2ec5 2b3f f16a 34bf
000000b0: 41ce 40bf 3300 493f 75fe 5c3e b089 8bbf
000000c0: e9e6 1b3f 4135 7fbf f67b f2be b088 0c3f
000000d0: d2d1 033f 6422 9bbf 34c7 1c3f ce10 84bf
000000e0: 3ef4 453e 3ad9 9f3e e7dc 3ebf cd04 debe
000000f0: a052 48bf 5d28 cc3e 626f dbbe 8434 2a3f

net.2.weight f4 [64, 64]
0.054183096 -0.09228635 0.09930572 -0.02461633 0.008024335 -0.10753593 -0.0944857 -0.061726034
0.042700917 -0.061147124 -0.0033782274 0.070530236 0.033996 0.051326275 -0.059095547 0.06805922
-0.0062176734 -0.016791373 0.012685493 -0.0015743226 -0.08439164 0.01171492 -0.06846607 0.007849559
-0.018582776 0.06357896 -0.08177142 0.07239874 -0.059282586 0.043001458 0.06991771 -0.09595959
-0.08141753 0.09251672 -0.057224482 -0.02645114 -0.09078576 0.10600391 0.0072737485 -0.09046167
0.08208962 0.015567556 -0.060933203 0.04472296 0.06959824 -0.023965567 -0.017328173 -0.0807233
-0.09127964 0.016124293 -0.06951144 -0.106766164 -0.114620134 0.026449218 -0.10557231 0.092557326
0.12201971 -0.09515713 0.017457664 -0.011417523 0.0005914122 -0.046489075 -0.04228671 -0.046642095
-0.013044937 0.010909444 0.06131564 -0.10518126 0.054300368 -0.10170686 -0.012669475 0.00588426
-0.027606515 -0.17146017 0.02111207 -0.02019558 -0.04681848 0.0005602404 0.059143513 -0.031880304
-0.10944906 0.05404326 0.08858821 -0.042937547 -0.09613593 -0.08525714 -0.017951818 -0.13417116
-0.08069165 -0.060327575 0.09313978 -0.015939832 -0.044836476 -0.063260674 -0.06817226 -0.10231191
0.029396223 -0.04951908 0.0930502 0.05364388 -0.18033788 -0.11339921 0.10496026 -0.07244666
-0.054499373 -0.040421367 -0.035790738 -0.062868506 0.0065995157 0.049322125 0.003827095 0.006137027
-0.13801531 -0.12240193 0.01955603 0.0064119995 -0.08794315 0.04942663 -0.15465507 0.07416943
0.0525651 0.06365666 -0.08322862 -0.16189748 -0.017576292 0.0294151 0.015672736 0.12273717
-0.14230046 0.050705384 -0.09359163 -0.15412241 -0.16988526 0.018343087 -0.098906234 -0.12070316
-0.18336493 0.03418093 -0.07586379 -0.041418035 -0.20779088 -0.07150599 -0.001986532 -0.08226569
-0.06267723 -0.07273052 -0.16077517 -0.11084673 0.028635407 -0.03659695 0.06115037 -0.05515206
-0.090541564 -0.08337597 -0.05455235 -0.1396171 -0.1065927 -0.03174517 -0.11473589 -0.065528445
-0.07070168 -0.12486765 -0.1749194 -0.003641281 -0.07123503 -0.12074524 0.0045338566 -0.107222885
0.028750362 -0.15476468 -0.0743551 -0.012326031 -0.111821845 0.04239183 0.03982176 0.014677701
-0.098991044 -0.12473917 -0.16763642 -0.04798638 -0.028736284 0.028840672 -0.10985492 -0.11763454
0.025465194 -0.058774106 -0.08138568 -0.08418568 -0.105913624 -0.13139094 -0.15187666 -0.059831437
-0.028086036 -0.087782174 0.090479404 -0.044450983 -0.10695481 -0.06473902 0.07903579 -0.056235373
-0.12458867 -0.013512388 -0.06373134 -0.030669674 -0.011200145 0.05456364 0.049522102 0.0109742135
0.08912727 -0.033506364 -0.03121525 -0.10079239 0.058404684 -0.005508095 0.076147825 -0.044971153
0.00082683563 0.097175464 0.0061687976 0.10660291 0.06517452 0.07990523 -0.0020465404 0.0071561337
-0.05000943 0.0843707 0.0002374053 -0.12011595 -0.11686845 -0.097092524 -0.076828256 0.00011996925
0.06444058 -0.05355972 0.016009733 0.067188844 0.07398665 -0.0735275 -0.06545098 -0.01735416
0.03779024 0.01470156 0.05640325 0.017374769 0.015103519 0.060409874 -0.05935839 -0.11558497
0.09725922 -0.06407693 -0.030500248 -0.08377859 0.112408 -0.08797866 0.046569347 0.11299984
00000000: 18ef 5d3d a000 bdbd cc60 cb3d 30a8 c9bc
00000010: 8078 033c cc3b dcbd b881 c1bd 70d4 7cbd
00000020: 28e7 2e3d 6875 7abd 4065 5dbb 2872 903d
00000030: 643f 0b3d 803b 523d 2c0e 72bd a262 8b3d
00000040: a0bd cbbb 108e 89bc d0d6 4f3c 8059 ceba
00000050: 86d5 acbd f0ef 3f3c f037 8cbd 709b 003c
00000060: e83a 98bc b035 823d c677 a7bd ca45 943d
00000070: 4cd2 72bd 4c22 303d 0431 8f3d 7686 c4bd
00000080: 3cbe a6bd 6879 bd3d 3864 6abd 10b0 d8bc
00000090: e2ed b9bd 9418 d93d a058 ee3b f843 b9bd
000000a0: 9a1e a83d 100f 7f3c 1895 79bd 6c2f 373d
000000b0: 8689 8e3d 7053 c4bc d0f3 8dbc 4252 a5bd
000000c0: d2f0 babd 1817 843c 045c 8ebd 38a8 dabd
000000d0: f6bd eabd 08ac d83c 4c36 d8bd b28e bd3d
000000e0: 78e5 f93d bee1 c2bd 6003 8f3c 9010 3bbc
000000f0: 0009 1b3a 546b 3ebd d434 2dbd c80b 3fbd
00000100: 6eba 55bc 86bd 323c 1c26 7b3d 4669 d7bd
00000110: 106a 5e3d b04b d0bd a193 4fbc c0d0 c03b
00000120: 0f27 e2bc 4193 2fbe 38f3 ac3c 3371 a5bc
00000130: bcc4 3fbd 19dd 123a 7840 723d ec94 02bd
00000140: d426 e0bd 775c 5d3d bc6d b53d 48df 2fbd
00000150: eae2 c4bd 4c9b aebd b10f 93bc 2a64 09be
00000160: aa41 a5bd 0c1a 77bd 12c0 be3d 4094 82bc
00000170: 74a6 37bd d08e 81bd e69d 8bbd e888 d1bd
00000180: 59d0 f03c 85d4 4abd 1a91 be3d afb9 5b3d
00000190: 7eaa 38be d83d e8bd 68f5 d63d ea5e 94bd
000001a0: bc3a 5fbd e090 25bd 4f99 12bd 34c1 80bd
000001b0: c040 d83b ff05 4a3d 00d0 7a3b 1d19 c93b
000001c0: e353 0dbe ddad fabd f833 a03c c01b d23b
000001d0: 8a1b b4bd 9473 4a3d e65d 1ebe 24e6 973d
000001e0: 814e 573d 6c5e 823d c473 aabd 74c8 25be
000001f0: 28fc 8fbc f0f7 f03c 1c64 803c a05d fb3d
00000200: 36b7 11be 73b0 4f3d f8ac bfbd 44d2 1dbe
00000210: 67f6 2dbe 3e44 963c 5a8f cabd 3833 f7bd
00000220: 04c4 3bbe 4e01 0c3d 7a5e 9bbd f5a5 29bd
00000230: 22c7 54be bc71 92bd 7a30 02bb ea7a a8bd
00000240: eb5c 80bd bdf3 94bd 3fa2 24be 9c03 e3bd
00000250: cd94 ea3c afe6 15bd cf78 7a3d 20e7 61bd
00000260: db6d b9bd 05c1 aabd 4972 5fbd c9f7 0ebe
00000270: 464d dabd 3907 02bd a6fa eabd c733 86bd
00000280: 0bcc 90bd 9cba ffbd 121e 33be 8fa2 6ebb
00000290: ace3 91bd 4849 f7bd bf90 943b ac97 dbbd
000002a0: e185 eb3c a27a 1ebe 7d47 98bd 1ff3 49bc
000002b0: da02 e5bd 0ea3 2d3d 241c 233d bd7a 703c
000002c0: d1bb cabd 4077 ffbd e2a8 2bbe 5e8d 44bd
000002d0: 5b68 ebbc 4643 ec3c 9efb e0bd 61ea f0bd
000002e0: 629c d03c 1ebd 70bd 89ad a6bd 8b69 acbd
000002f0: 3ee9 d8bd 598b 06be 8e85 1bbe cf11 75bd
00000300: b014 e6bc 24c7 b3bd 444d b93d 3c12 36bd
00000310: 200b dbbd e495 84bd 84dd a13d 1057 66bd
00000320: 5828 ffbd 1063 5dbc 9485 82bd f83e fbbc
00000330: d080 37bc 207e 5f3d b0d7 4a3d 30cd 333c
00000340: 5c88 b63d f83d 09bd 20b7 ffbc 3e6c cebd
00000350: c039 6f3d 407d b4bb 64f3 9b3d ac33 38bd
00000360: 00c0 583a ee03 c73d a023 ca3b a052 da3d
00000370: 387a 853d 5aa5 a33d 401f 06bb 007e ea3b
00000380: b0d6 4cbd 8cca ac3d 00f0 7839 5aff f5bd
00000390: ba58 efbd 72d8 c6bd 2258 9dbd 0098 fb38
000003a0: 6cf9 833d 7061 5bbd d826 833c 4e9a 893d
000003b0: 5086 973d 9695 96bd 2a0b 86bd 502a 8ebc
000003c0: f0c9 1a3d d0de 703c 1807 673d 8855 8e3c
000003d0: c074 773c 5870 773d c821 73bd d0b7 ecbd
000003e0: d82f c73d c43a 83bd a8db f9bc 1c94 abbd
000003f0: 2a36 e63d 282e b4bd 80bf 3e3d 766c e73d

net.2.bias f4 [64]
-0.10915692 -0.039929047 -0.07495561 -0.031501755 -0.046351492 -0.3092245 -0.19684517 -0.09637306
-0.0716852 -0.02123481 -0.13430296 -0.19295008 -0.071514994 -0.022249952 0.018629728 -0.10810179
-0.05590529 0.0012582093 0.107687116 -0.14295699 -0.056777723 0.011643122 -0.15481739 -0.14912896
-0.14409651 0.039450742 0.013058409 -0.050451484 0.00096155016 -0.16086426 -0.1831124 0.009051386
0.022619674 -0.17888074 -0.06327277 -0.24717495 -0.1149958 -0.09216271 -0.062463496 -0.07257778
0.0033194132 0.02496032 -0.17341687 -0.08211152 -0.14039287 -0.029460201 -0.13816604 -0.062029228
-0.06626704 0.054562062 -0.07740947 -0.09004279 -0.15228754 -0.08283401 -0.05858074 -0.14270328
-0.19507557 -0.0059529217 -0.18673824 -0.050631974 -0.103273734 0.005173723 0.009692714 -0.17252052
00000000: aa8d dfbd a48c 23bd 5482 99bd fc07 01bd
00000010: 10db 3dbd ac52 9ebe c891 49be 3d5f c5bd
00000020: b1cf 92bd a0f4 adbc b786 09be b594 45be
00000030: 7476 92bd 8845 b6bc 5f9d 983c 7964 ddbd
00000040: f2fc 64bd 80ea a43a 108b dc3d 5163 12be
00000050: c28f 68bd cbc2 3e3c 7388 1ebe 43b5 18be
00000060: 098e 13be 1a97 213d f0f2 553c 37a6 4ebd
00000070: 8a10 7c3a 9ab9 24be d181 3bbe 444c 143c
00000080: e54c b93c 832c 37be 2795 81bd 6e1b 7dbe
00000090: eb82 ebbd cebf bcbd b9d9 7fbd a9a3 94bd
000000a0: 838a 593b 9679 cc3c 3194 31be 162a a8bd
000000b0: 26c3 0fbe 8556 f1bc 667b 0dbe 5c12 7ebd
000000c0: 04b7 87bd 787c 5f3d db88 9ebd 5b68 b8bd
000000d0: 44f1 1bbe e1a4 a9bd 5cf2 6fbd cf20 12be
000000e0: e4c1 47be ba10 c3bb 4f38 3fbe 7963 4fbd
000000f0: 2e81 d3bd 5688 a93b 30ce 1e3c 38a9 30be

net.4.weight f4 [1, 64]
-0.005866006 -0.008306673 0.00722026 0.023272812 0.03347476 0.24717864 0.16343121 0.17537272
-0.010754278 -0.10508831 0.12319758 0.13948917 0.06163627 -0.0064250794 0.13208005 -0.013469666
0.14496022 0.114138186 -0.09088415 0.24235539 0.04806598 -0.009213489 0.04923233 -0.0010585955
-0.015345117 -0.06336086 0.10868931 -0.016965864 0.12221402 0.100353114 0.011015989 0.1794585
0.19749327 0.052834187 -0.02666757 0.17478888 -0.038788095 0.17638718 0.12484978 -0.0113223195
0.12771326 -0.006043492 0.14742401 -0.012266427 0.20746711 0.024033668 -0.03841635 -0.06922163
0.14484993 0.011906717 0.08281662 -0.04738329 -0.05308936 0.19006741 -0.009850696 -0.034350265
-0.030570712 0.11682099 0.17436679 0.038683362 0.04913978 0.05087401 -0.124845 -0.00991701
00000000: a037 c0bb b618 08bc ee97 ec3b a0a6 be3c
00000010: d41c 093d 661c 7d3e 835a 273e e894 333e
00000020: b632 30bc 8a38 d7bd 034f fc3d 40d6 0e3e
00000030: 5076 7c3d 7989 d2bb fe3f 073e e0af 5cbc
00000040: 7470 143e 48c1 e93d 7821 babd 032c 783e
00000050: d5e0 443d 2cf4 16bc d7a7 493d 92c0 8aba
00000060: 166a 7bbc 57c3 81bd 8098 de3d fffb 8abc
00000070: 584b fa3d ef85 cd3d 687c 343c f8c3 373e
00000080: ad3b 4a3e a968 583d f375 dabc dbfb 323e
00000090: 44e0 1ebd d79e 343e 3eb1 ff3d 4081 39bc
000000a0: 44c7 023e 7c08 c6bb 52f6 163e 20f9 48bc
000000b0: 4272 543e 41e2 c43c 765a 1dbd 12c4 8dbd
000000c0: 8a53 143e 6414 433c c39b a93d fb14 42bd
000000d0: 3b74 59bd 08a1 423e d064 21bc ddb2 0cbd
000000e0: 6e6f fabc d83f ef3d 358d 323e 7272 1e3d
000000f0: cb46 493d 4461 503d bcae ffbd f47a 22bc
