loan_model.pth (torch, 6073 bytes, 5 tensors)

net.0.weight f4 [32, 5]
00000000: fc3d dd3d 9eb7 ccbe 56e9 5cbe 47a0 713e
00000010: 2b92 10bf b256 a43e 2f65 0a3f 0fb3 e2be
00000020: 5a5d 3ebe 6616 9d3e 7cb1 0c3f 8e2d acbc
00000030: e78f 003f c95e 3fbd 1f09 fb3d 1574 1e3e
00000040: c992 9dbe 67a5 39bd 8e41 d9bc b059 f73e
00000050: 571c bcbe 5ebf 84bc a727 a33e 4c5d d5bd
00000060: b9e5 f13c cbf6 3a3e d15c 89bd df13 4d3e
00000070: 1600 393e f870 f03e 0f74 9c3e d2f4 193f
00000080: e341 053e 5520 2c3e ecb9 a53e 3cf3 c13d
00000090: 4bfb ea3d 8bf1 c0bc 569d 2f3c 48d7 75be
000000a0: acee c8be 827e 1a3d 9f09 2e3d 5468 e03d
000000b0: 5111 c8bd e5fd a33e 572c 92bb d6a7 083f
000000c0: 71ac 65be 6599 2e3e a478 c23e 6d6e ed3e
000000d0: fdb3 d6be 25ea 903e c270 8e3e acf5 2f3f
000000e0: 7e7a 8ebe aaa4 2f3e 7afa 703c 6fce 6b3e
000000f0: 40dc e3bd 43b9 f6bd 1e6d 273d c377 593e
00000100: ae45 08be 64a0 f43d deb1 3b3e 703c c2be
00000110: 1e1e cf3d af73 8f3e b84d cd3b e3a6 a03b
00000120: f6f2 203e 6b75 9a3e ff34 00bf 9fef f2be
00000130: f859 873e bbda 54bd feaf 6a3e 1ac3 edbe
00000140: 35c3 a7bd 6ea7 afbe cb6e f2bd d039 db3d
00000150: 9586 18be fd26 a6be bf2e 013e d1c4 d93e
00000160: bd02 ef3e 836f f63e 9506 ec3c 59d0 a93d
00000170: b355 0b3e 2053 a8bd cb2a e1be 8037 5c3e
00000180: fbb5 0d3f 7c1b 95be 7345 a83e eb74 a73e
00000190: ab3b 943e bdc0 a93c bb37 20be abe5 2e3e
000001a0: 3d5f c0be d40c 45be c3a1 0bbe 6326 203e
000001b0: 2ea6 9b3e 5256 6a3c a8db 0abe 4fff 183f
000001c0: e499 003e 13d0 c5bd 9f5b cbbd f441 4e3e
000001d0: 1927 9d3d 7088 d4bd 12e2 643e 05c8 06bf
000001e0: e326 debc 6052 af3e 327c 03bf 6989 04bc
000001f0: 01aa 593e 12bb c23e 7997 f83c b25a dcbe
00000200: 92ec 80bd fec4 b1be 6fe8 f1be a1bd 8bbe
00000210: 1b76 17bf 8ac4 6d3d 1bd5 9fbe 45a6 58be
00000220: cf96 543c 99c9 b3bd c459 b6bd 610b c53e
00000230: 68b7 48be 4de5 ed3e bb8c 80bd e3b5 003e
00000240: c598 0dbd 2648 733e 658e 0c3f 8da9 7f3e
00000250: 6525 80bd 2d31 1abe 8cf4 6fbe 746b e4be
00000260: 94b0 6cbd edf3 733e 653d 02bd 42e1 b0be
00000270: fca6 9dbe ccd7 5fbe fa15 9cbe 1827 a2be
0.10802838 -0.3998384 -0.21573386 0.23596297 -0.56473035 0.32097393 0.54060644 -0.44277236
-0.18590298 0.3068115 0.5495832 -0.021017816 0.5021958 -0.046721254 0.12257599 0.1547397
-0.3077605 -0.045323756 -0.026520517 0.48310614 -0.36740372 -0.016204532 0.3186619 -0.104181856
0.029528486 0.18258207 -0.067071564 0.20027111 0.18066439 0.46961188 0.30557296 0.6013919
0.13013415 0.16809209 0.3236841 0.094702214 0.114737116 -0.023552677 0.010718664 -0.24007905
-0.39244592 0.037718304 0.042489644 0.10957399 -0.09768928 0.32029644 -0.004460852 0.533811
-0.22429062 0.17050703 0.37982666 0.4637331 -0.41934195 0.28303638 0.27820402 0.6873424
-0.2782783 0.17152658 0.014708156 0.23027967 -0.11125994 -0.120470546 0.040875547 0.21237092
-0.1330783 0.119446546 0.1832957 -0.37936735 0.10113166 0.28017947 0.0062653683 0.004902707
0.15717682 0.30167708 -0.50080866 -0.4744844 0.26435828 -0.05196641 0.22918698 -0.46437913
-0.0819153 -0.34307426 -0.11837538 0.10704386 -0.14895089 -0.3245162 0.12615488 0.42532972
0.46681777 0.48131952 0.028811732 0.08291692 0.1360691 -0.0821898 -0.4397796 0.21505547
0.55355805 -0.2912253 0.32865486 0.3270639 0.28951773 0.020721788 -0.1564626 0.17079799
-0.3757266 -0.19243175 -0.13635926 0.15639643 0.30400223 0.014302807 -0.13560355 0.5976457
0.12558705 -0.09658828 -0.09929585 0.20142347 0.07673473 -0.10377586 0.22351864 -0.52648956
-0.027118152 0.34242535 -0.5136138 -0.008089402 0.21256258 0.38033348 0.030345665 -0.43037945
-0.06295122 -0.34720606 -0.47247645 -0.27293113 -0.5916459 0.058048762 -0.31217274 -0.21157177
0.012975409 -0.08778686 -0.0890384 0.38485244 -0.19601214 0.46464005 -0.06276842 0.12569384
-0.03456952 0.23757991 0.54904777 0.24967022 -0.062571324 -0.15057822 -0.23433131 -0.4461323
-0.057785586 0.23823519 -0.03179683 -0.34546858 -0.3079146 -0.21859664 -0.30485517 -0.3167045

net.0.bias f4 [32]
00000000: 457b 78be f111 c13e b569 0bbe fcc7 8c3e
00000010: b5eb f8be e77b 843e 056e 44be 7185 7c3e
00000020: df44 b3be f553 3d3e 5deb 0b3e 2b2b 0e3e
00000030: 3f94 43be fad4 733e c8b1 0bbf c647 d3be
00000040: 76a5 69be e1e5 ff3e c6d3 d9be cf7a fa3c
00000050: c5ce 77be 82c8 6f3e 9b68 a83e 014c 81be
00000060: 32e3 e63e 0b76 ffbe befb cb3d aa2a dbbe
00000070: 159d 153e d1f3 9c3c ce69 81be cfb6 e3be
-0.24265774 0.37709 -0.13614543 0.27496326 -0.4861733 0.2587578 -0.19182594 0.24660279
-0.35013482 0.18489058 0.13664003 0.13883655 -0.1909952 0.23811713 -0.5456815 -0.41265696
-0.22817025 0.4998007 -0.42544383 0.030576138 -0.2419997 0.23416331 0.32892308 -0.252533
0.4509521 -0.49894747 0.099601254 -0.42805988 0.14610703 0.01915923 -0.25276035 -0.4447541

net.2.weight f4 [16, 32]
00000000: b762 e73d 1291 a2be e9a8 223e cd5a 973e
00000010: f107 bdbd 6328 bc3e 88b1 7b3d 952e 093e
00000020: c604 0e3e 0e1a 313e e7e5 963d 0f12 603e
00000030: d1b1 acbd 0e01 64be be75 183e 1be5 43be
00000040: 90f1 89bd ac38 4b3e e3ac 0b3d 08b3 c9be
00000050: 162d 453e 8e9e cd3e be27 57be 1f4f d4bc
00000060: bbcb cdbd a1ff b7bd fb0a f53d 53b0 0a3e
00000070: 3c9a 33bd 1002 193d e508 823d 08b9 f63c
00000080: 9b6f 6bbe 1984 843c 794d 87be 5050 7dbe
00000090: 0e15 083e d637 82be 57b3 203e 3894 113e
000000a0: cb89 d33d 4051 06be aff2 c43d 5dd3 eebe
000000b0: 7bd5 0ebe e965 083d bfbe 2c3d 94ac 903d
000000c0: 92f9 23bc 9e1e cbbd 7344 003e 1a5a 4e3e
000000d0: c38d 85be ee1c 85be 7905 f3bc eac8 38bd
000000e0: e9b9 3b3e ac2b c9bc eaf4 06ba 0a05 8d3d
000000f0: e3e5 143e 6d2d 76bd ede5 1fbe 7b08 c73d
00000100: 80e9 dbbc 0908 ec3d 43d1 27be 4216 33be
00000110: 48e8 acbd 5268 d9bd 25ce 613e edfe 813e
00000120: 53c0 963d a9a1 da3c 3774 983e 8e2d 60be
00000130: be26 16bd bda2 9e3e d188 833d 1924 63bd
00000140: cb33 bc3d 4bec 0abc 2840 2fbb f283 2c3e
00000150: cd3f 523d 9249 20be c24a b53e 3bdf 77bd
00000160: 59fd 8c3e dcda d23d d901 b93d 5c26 8fbc
00000170: fca8 203e bc45 1a3e ad99 1bbe 7a5e 11be
00000180: 92a3 1b3d e4cb 853d 5e9d f63d 5aa8 64be
00000190: d5e0 9cbb 4f6b 9f3d c4e5 303e 1482 0d3e
000001a0: d09a 083e f7ed 31be 4f41 6b3d 8d8d 67be
000001b0: a5b0 a0bd 2b4b 653e df0d 06be 36ac 473d
000001c0: 0b68 ffbb cd10 17bd ae81 093e d1db c63e
000001d0: cf3b 61bd d4b3 4dbe c564 0f3e c882 4e3e
000001e0: e73a 883e d22a 603d 08c4 abbd 44f0 cd3d
000001f0: f3e3 1d3e 440d 1b3e 9835 053e ed72 24be
00000200: fa64 22be b097 083d 9a07 b9bd 4964 dbbd
00000210: b92a c43d 6056 073c feec e3bd bbd8 c1bd
00000220: b0ee dcbc 406d 97bd 2f28 1cbe 34ad ab3c
00000230: 7ad6 313e 1e32 4a3d f234 28be 51ef 1b3e
00000240: 1748 9e3c 2f8d f5bd 8c6d b73d bf72 963d
00000250: 2c53 db3d 7f1d 533c 3aba b2bd 894f d13c
00000260: 0996 babd 7aa9 efbd 9292 f6bd 9c48 cc3d
00000270: 7fd2 0d3e 9ac0 02be 11a6 623d d36f 2cbe
00000280: 17b1 4a3e 2865 89bd 861d 2fbe c76a 693d
00000290: 18f9 1a3e f83e 15be 2db7 7b3d 6b2f 4fbe
000002a0: 8e93 b93d 2946 88be 0b94 c63c 4df5 3b3e
000002b0: 3fd6 823d f1fd 943c 0580 2ebe 5b4d c3bd
000002c0: e1a5 2c3e 25c7 45be 0c47 223e a38f 523d
000002d0: 560f a0bb 5217 d33d 8f5d 39be 1c94 29be
000002e0: 57e1 4aba 8d69 5cbe a0d2 4dbe 4f95 19be
000002f0: 5c38 72be 2485 b4bd baba 8cbd 1bb5 cabc
00000300: b464 96bd 9745 16bd fb93 e33d 8148 663d
00000310: 4c86 febc 4bdf a93c 54a4 263e 2174 f7bd
00000320: fe56 a53d 8af0 88bd 38eb 06be e3f4 853e
00000330: 6d25 f5bd d330 c5bd 42b4 883e 9c6d 553d
00000340: d0aa 2fbe d7b7 6c3c 37b6 a8bc 359c 9f3d
00000350: 17df 27be f113 6ebd ef08 1fbe 8be0 6cbe
00000360: 5a7b 5bbe c596 0dbe a8da 4bbd cd35 943c
00000370: 8d20 99bc 1d04 4bbe f4a4 05be de01 72bb
00000380: 0f47 f0bd 452f c23e 982c febb 5a84 0bbe
00000390: d818 ea3d c010 37be 0386 f4ba ff9d 523c
000003a0: 7428 87bd 8531 05bd 4433 813e c408 04be
000003b0: a283 633d 098a 0f3e 0691 c1bd 0044 d63d
000003c0: d425 0c3e 9d8c ee3c 183e 8b3d 6524 013e
000003d0: 09b4 923d f5c6 b9bd b76c b03e 4753 91bb
000003e0: a01e 9c3e 2530 c7bd 05f0 933d 73c2 c5bd
000003f0: 6196 943e f984 6a3e 0a4e dabd 8772 f0bb
0.11298125 -0.31751305 0.15884747 0.29561463 -0.0923003 0.36749563 0.061448604 0.13396676
0.13869008 0.17295095 0.07368069 0.21881889 -0.08432353 -0.22266027 0.14888665 -0.19130366
-0.067355275 0.19845837 0.034100424 -0.39394403 0.1925548 0.4016003 -0.21011254 -0.025916634
-0.10048624 -0.08984304 0.11964985 0.13543825 -0.04384826 0.037355483 0.06349353 0.030117527
-0.22991793 0.01617627 -0.26426294 -0.24737668 0.13289282 -0.25433224 0.15693413 0.14216697
0.10329016 -0.13116932 0.09616601 -0.46645632 -0.13948624 0.033300314 0.042174097 0.07064167
-0.010008233 -0.09917949 0.12526111 0.20151559 -0.26084718 -0.25998634 -0.029665696 -0.04511348
0.18332638 -0.024556957 -0.00051481894 0.06885727 0.1454082 -0.060101915 -0.15615053 0.097184144
-0.02684474 0.1152497 -0.16388421 -0.1748896 -0.08442742 -0.10615601 0.22051294 0.25389805
0.07360902 0.026688414 0.29776165 -0.21892378 -0.03665804 0.30983534 0.0642258 -0.055454347
0.09189566 -0.008479188 -0.002674112 0.16847208 0.051330376 -0.15653065 0.35408598 -0.060515624
0.2753704 0.1029565 0.090335555 -0.017474346 0.15689462 0.15065664 -0.15195341 -0.14196196
0.03799779 0.0653303 0.12041734 -0.22329846 -0.0047875443 0.07784139 0.17275149 0.13819152
0.13340306 -0.17375933 0.05743533 -0.22612591 -0.07846192 0.22391956 -0.13091229 0.048748218
-0.0077943853 -0.036881257 0.13428375 0.38839582 -0.05498868 -0.2008813 0.14003284 0.20167077
0.2660744 0.054728337 -0.08386999 0.10055593 0.15418987 0.15141779 0.13008726 -0.16059466
-0.15858832 0.033347785 -0.09034653 -0.10712487 0.09578461 0.0082603395 -0.11129187 -0.09465166
-0.026969284 -0.07393885 -0.15249704 0.020956613 0.17366973 0.0493642 -0.16426447 0.1522801
0.019321484 -0.11989819 0.08956441 0.07346105 0.10709223 0.01288545 -0.08726926 0.02555062
-0.09110648 -0.11702247 -0.12039675 0.09974787 0.13849829 -0.12768784 0.055334155 -0.16839533
0.19794117 -0.06708747 -0.17101106 0.056986596 0.15134084 -0.14574802 0.061453987 -0.20232932
0.09061347 -0.26616028 0.024240514 0.18355294 0.063885204 0.018187495 -0.17041023 -0.09536239
0.16860153 -0.19314249 0.15847415 0.051406514 -0.0048846407 0.10307182 -0.18102096 -0.16560405
-0.0007739267 -0.2152464 -0.20099878 -0.14998363 -0.23654312 -0.08814457 -0.06871553 -0.024744561
-0.07343426 -0.03668746 0.111122094 0.05622149 -0.031069897 0.020736357 0.16273624 -0.12082697
0.08073233 -0.06686504 -0.13175666 0.26163396 -0.11970029 -0.09628453 0.26700026 0.052106485
-0.17155004 0.014448128 -0.0205947 0.07793466 -0.16393696 -0.058124486 -0.15530752 -0.23132531
-0.21433774 -0.13827045 -0.049769074 0.01809206 -0.01869228 -0.19825788 -0.13051206 -0.0036927382
-0.11732303 0.3792669 -0.007756781 -0.13624707 0.1143052 -0.17877483 -0.0018655661 0.012855052
-0.06599513 -0.03251793 0.25234425 -0.12893969 0.055545457 0.140175 -0.09451489 0.10462189
0.13686305 0.029119784 0.06798953 0.1261154 0.07163245 -0.09071151 0.34457943 -0.0044349763
0.30492115 -0.0972598 0.072235145 -0.09656229 0.2902098 0.22902288 -0.10659416 -0.0073378715

net.2.bias f4 [16]
00000000: 0199 a43e 2880 a3bd 3f4f 0b3d 08c1 093e
00000010: 1922 673d ea5f 1bbe 3b5c 15be 7304 8f3d
00000020: 1ec9 f0bd 3366 e1bd 2904 833d 36ce b53d
00000030: 46b7 813e d38f 033e 40e8 a53d 5e75 ecbd
0.32147983 -0.07983428 0.03401112 0.13452542 0.056429002 -0.15173307 -0.14585964 0.069832705
-0.1175711 -0.11005821 0.06397278 0.08877222 0.2533514 0.12847833 0.08100939 -0.115458235

net.4.weight f4 [1, 16]
00000000: 4c79 adbe f34c 2d3e 632c 8d3e 185a 5d3e
00000010: 00e8 11be 79a3 23be 5b5e 58bd c0e5 823e
00000020: e0fd 843c 3c20 efbd a681 9b3e a67e 83be
00000030: e161 81be f302 8e3e c7fc 403e 00e8 a23c
-0.33881605 0.16923885 0.27572927 0.216164 -0.14248657 -0.15980329 -0.05282436 0.2556591
0.016234338 -0.1167607 0.3037235 -0.25682563 -0.25269988 0.27736625 0.18846427 0.019886017
