my_secret_model.pth (torch, 20597 bytes, 5 tensors)

net.0.weight f4 [64, 1]
0.55785877 0.3361247 0.20799786 -0.64103234 0.4604391 -0.37989286 -0.36081538 -0.15625158
0.231625 0.4959361 -0.28495023 0.8133291 0.93129504 0.39994046 -0.058707263 -0.45110402
0.612678 -0.28275323 -0.254532 -0.36798576 -0.69456476 -0.72234166 -0.16752718 0.58426243
0.18243839 -0.9907037 0.3132234 0.86182016 0.35880974 -0.3454268 -0.16903315 0.81945646
-0.06931865 -0.77133834 -0.29020137 -0.4876478 -0.8718308 -0.4821517 0.08350969 -0.74712497
0.39302987 -0.5686687 -0.53415376 0.37217325 -0.5806593 -0.61276287 0.6654512 0.36169443
0.284202 -0.72276527 0.1899635 -0.47044522 -0.7364908 0.20316873 0.84905404 0.8384816
0.28750503 0.058002856 -0.7795691 0.22652552 0.37132263 -0.55784607 0.51799977 0.6508523
00000000: d5cf 0e3f 8918 ac3e 64fd 543e b21a 24bf
00000010: acbe eb3e 5181 c2be cbbc b8be 6a00 20be
00000020: 1b2f 6d3e 56eb fd3e ffe4 91be 5636 503f
00000030: 5a69 6e3f ffc4 cc3e 0777 70bd 1bf7 e6be
00000040: 77d8 1c3f 08c5 90be 0552 82be a168 bcbe
00000050: ffce 31bf 62eb 38bf 3f8c 2bbe 3992 153f
00000060: 21d1 3a3e c29e 7dbf d15e a03e 3fa0 5c3f
00000070: e9b5 b73e c8db b0be 0717 2dbe e6c7 513f
00000080: f0f6 8dbd 6e76 45bf 4695 94be f9ac f9be
00000090: 4e30 5fbf 96dc f6be 2107 ab3d 9543 3fbf
000000a0: 363b c93e 4694 11bf 4dbe 08bf 7e8d be3e
000000b0: 16a6 14bf 07de 1cbf 035b 2a3f 0330 b93e
000000c0: ed82 913e 2507 39bf cb85 423e 32de f0be
000000d0: a98a 3cbf 770b 503e 9b5b 593f bba6 563f
000000e0: dc33 933e 6794 6d3d d791 47bf 4ef6 673e
000000f0: 001e be3e 00cf 0ebf a29b 043f 429e 263f

net.0.bias f4 [64]
0.03380156 0.045578774 0.5293223 -0.5772782 -1.5790943 -1.1803775 -1.0929279 -0.47450098
0.5200021 0.5986893 -0.59741676 0.95056665 -0.62005115 0.75238097 -0.4781355 -1.3023319
-1.5182234 -0.93918824 0.5397165 -1.0693944 -0.59005296 -0.007410883 0.36343697 -1.1983011
0.46320108 0.07554676 0.6021806 -0.23186843 -0.942064 -0.9616064 0.3422597 -0.0972491
-0.68994665 -0.9080524 -0.56586546 0.31862986 0.5851137 0.54582196 -0.22283441 -0.039249483
0.6308405 0.27565756 0.52360845 -0.47125006 -0.6003452 0.79830015 0.82196575 0.8168339
0.7378383 -1.4758211 -0.14587077 0.6308527 0.02647903 0.50234234 0.49516222 0.20470437
-0.56565434 0.48601773 0.77302355 0.5174418 -1.065341 -1.390281 0.834306 -1.156724
00000000: 8173 0a3d cfb0 3a3d ab81 073f 81c8 13bf
00000010: c31f cabf 9c16 97bf 10e5 8bbf cbf1 f2be
00000020: dc1e 053f b443 193f 4ef0 18bf 5658 733f
00000030: acbb 1ebf 0a9c 403f 2dce f4be d0b2 a6bf
00000040: 2555 c2bf a46e 70bf dc2a 0a3f eae1 88bf
00000050: b60d 17bf fed6 f2bb 6914 ba3e ee61 99bf
00000060: b128 ed3e 42b8 9a3d 8228 1a3f eb6e 6dbe
00000070: 1b2b 71bf d62b 76bf aa3c af3e 892a c7bd
00000080: 58a0 30bf 1f76 68bf 8fdc 10bf 7423 a33e
00000090: 03ca 153f fdba 0b3f b42e 64be 11c4 20bd
000000a0: c37e 213f fd22 8d3e 340b 063f b047 f1be
000000b0: 39b0 19bf 665d 4c3f 596c 523f 071c 513f
000000c0: f9e2 3c3f b5e7 bcbf 265f 15be 907f 213f
000000d0: 8dea d83c 8299 003f e785 fd3e 069e 513e
000000e0: b9ce 10bf 51d7 f83e dfe4 453f 1177 043f
000000f0: 185d 88bf baf4 b1bf 1495 553f 880f 94bf

net.2.weight f4 [64, 64]
-0.15668051 -0.0031540017 -0.081139855 -0.040809363 -0.01909125 0.025296807 0.10416457 -0.017039001
-0.027030328 -0.032285023 0.062055826 -0.14281921 -0.08617908 -0.1342373 -0.14966564 0.037580296
-0.16900158 -0.065724 -0.104791306 0.018418238 -0.07095404 -0.32268047 -0.29024488 -0.074433625
-0.16639659 -0.14894783 -0.04873298 -0.006128279 -0.042202156 -0.045319736 -0.31565768 0.03694198
-0.06377581 0.07095645 0.08506633 -0.15779103 -0.31392792 -0.30798098 -0.19881363 -0.31136096
-0.02047098 -0.2237118 -0.26195347 -0.0500071 0.065325886 -0.108187996 -0.029764075 -0.051894493
-0.09605468 -0.07896392 -0.20185073 -0.29820254 -0.3245607 -0.09790725 0.02466689 0.028914314
0.027105393 -0.107593596 -0.18175305 -0.14567234 0.009393122 -0.124880865 -0.15556751 0.027029255
0.21507552 0.19634742 0.024701532 0.11306394 1.2956938 0.4283281 0.2963738 0.15715669
0.06954075 0.16297014 0.1640937 0.22453955 0.23136364 0.047442302 0.063103415 0.22199814
0.441564 0.56720513 0.1125156 0.1581527 0.083589636 -0.024720794 0.1463459 0.3254662
-0.009837179 0.12002945 0.058322124 0.014832732 0.40394628 0.1435022 -0.009399298 0.1054974
0.099496916 0.1077006 0.081557214 -0.028101921 0.106653824 0.188083 0.09339447 0.10129798
0.108129725 0.086090125 0.014214615 0.12058391 0.20456673 0.20184112 0.1541711 0.18154174
0.13182203 0.16638882 0.102769375 0.02267915 0.09386022 0.090641715 0.07157069 0.21832332
0.22276767 -0.025867937 0.14646272 0.15441372 0.8266869 0.12328023 0.102248296 0.26074225
-0.08516937 -0.0960013 -0.21136932 -0.1860951 -0.069224775 -0.049624074 -0.23657078 -0.21025681
-0.10714865 -0.22854894 -0.23464969 -0.12404361 -0.1503887 -0.16015145 -0.24464715 -0.19871601
-0.06895317 -0.135656 -0.1583407 -0.07462094 -0.042594556 -0.14432773 -0.14216408 -0.19272223
0.0008730756 -0.0092293145 -0.08062568 -0.10852517 -0.16164498 -0.14445479 -0.071201146 -0.008065251
-0.069439575 -0.20257966 -0.14820746 -0.028702639 -0.06940197 -0.16222663 -0.18128125 -0.038947772
-0.17437384 -0.15928273 -0.09354314 -0.22255507 -0.23804283 -0.007658883 -0.08189083 -0.21259932
-0.009265317 -0.09539161 -0.11645109 -0.027579322 -0.030477814 -0.068664655 -0.032293517 -0.14866522
-0.20731078 -0.13998026 -0.15880595 -0.0010247356 -0.22382264 -0.24435751 -0.104610324 -0.16020001
-0.20932584 -0.049844455 -0.15681016 0.0738529 -0.13224135 0.06052053 0.059117615 0.045246065
-0.020270042 -0.23123947 -0.055988222 -0.05344485 -0.08627872 -0.07763319 -0.23125793 0.061601058
-0.032191537 -0.014496103 -0.17405821 -0.0495217 -0.07726173 0.06272398 -0.13218392 -0.03954206
-0.1156123 -0.086960986 -0.09138353 -0.24190909 -0.09402211 -0.002430305 -0.092476234 -0.061282147
-0.09615423 0.06366655 -0.007819414 -0.19417548 -0.21834081 -0.21359505 -0.06842476 -0.0064717233
-0.13507245 0.05246149 -0.1575916 -0.19123481 0.028850421 -0.12521228 -0.07859124 -0.13338278
-0.123226024 -0.040101066 -0.13322634 -0.22641185 0.0020575225 -0.021396855 -0.20670801 -0.09415428
-0.14170055 -0.1466846 -0.077455476 -0.113956295 -0.21391366 0.046877384 -0.15140912 -0.13417861
00000000: db70 20be 5eb3 4ebb a72c a6bd b827 27bd
00000010: 4165 9cbc 403b cf3c 3c54 d53d 6095 8bbc
00000020: b56e ddbc 4d3d 04bd 402e 7e3d 333f 12be
00000030: a87e b0bd 8175 09be f341 19be cced 193d
00000040: c00e 2dbe 4e9a 86bd d39c d6bd d8e1 963c
00000050: 5a50 91bd 6036 a5be fa9a 94be a870 98bd
00000060: de63 2abe c885 18be 3c9c 47bd bbcf c8bb
00000070: 2bdc 2cbd 30a1 39bd e29d a1be 7950 173d
00000080: e49c 82bd 9e51 913d 4237 ae3d f993 21be
00000090: 29bb a0be afaf 9dbe cd95 4bbe b46a 9fbe
000000a0: c2b2 a7bc b514 65be c41e 86be 3fd4 4cbd
000000b0: 94c9 853d ab91 ddbd cad3 f3bc 528f 54bd
000000c0: 51b8 c4bd d6b7 a1bd f5b1 4ebe 01ae 98be
000000d0: d22c a6be 9983 c8bd 3812 ca3c b6dd ec3c
000000e0: 210c de3c 085a dcbd 791d 3abe 212b 15be
000000f0: 9ce5 193c 8ac1 ffbd 174d 1fbe 756c dd3c
00000100: c23c 5c3e 4c0f 493e de5a ca3c 118e e73d
00000110: 4bd9 a53f d24d db3e 4fbe 973e afed 203e
00000120: 616b 8e3d a5e1 263e 2e08 283e b2ed 653e
00000130: 97ea 6c3e dc52 423d 5d3c 813d 7b53 633e
00000140: ad14 e23e 5b34 113f 946e e63d c8f2 213e
00000150: 0b31 ab3d 4383 cabc b3db 153e 81a3 a63e
00000160: 1f2c 21bc 00d2 f53d 2ee3 6e3d fd04 733c
00000170: 0cd2 ce3e 3ef2 123e 83ff 19bc 050f d83d
00000180: 0ac5 cb3d 2292 dc3d 7807 a73d 0036 e6bc
00000190: 526d da3d d498 403e 9a45 bf3d 5175 cf3d
000001a0: 1e73 dd3d 0550 b03d 6be4 683c b2f4 f63d
000001b0: f179 513e 70af 4e3e 07df 1d3e 14e6 393e
000001c0: 5bfc 063e d561 2a3e c078 d23d a0c9 b93c
000001d0: c939 c03d 5da2 b93d a793 923d 2690 5f3e
000001e0: 351d 643e ffe8 d3bc 53fa 153e a11e 1e3e
000001f0: c1a1 533f 587a fc3d 8e67 d13d 0280 853e
00000200: 476d aebd 549c c4bd 3371 58be b78f 3ebe
00000210: b8c5 8dbd 9d42 4bbd 9c3f 72be 904d 57be
00000220: c070 dbbd bc08 6abe 0248 70be 940a febd
00000230: 7fff 19be befe 23be c884 7abe 367c 4bbe
00000240: 5237 8dbd 68e9 0abe 1124 22be ddd2 98bd
00000250: a177 2ebd a6ca 13be 7693 11be fa58 45be
00000260: 1ddf 643a 8d36 17bc 141f a5bd 7242 debd
00000270: 4386 25be f5eb 13be e8d1 91bd 1d24 04bc
00000280: 5636 8ebd 0b71 4fbe b2c3 17be cc21 ebbc
00000290: 9f22 8ebd bd1e 26be cba1 39be b387 1fbd
000002a0: 0e8f 32be 031b 23be 8c93 bfbd 7ae5 63be
000002b0: 80c1 73be 5ef7 fabb 61b6 a7bd a3b3 59be
000002c0: 8ecd 17bc ad5c c3bd e97d eebd 08ee e1bc
000002d0: 9cac f9bc 0ea0 8cbd 3546 04bd b23b 18be
000002e0: 4749 54be fc56 0fbe 079e 22be 6c50 86ba
000002f0: c331 65be db38 7abe f03d d6bd 790b 24be
00000300: 8359 56be b329 4cbd d892 20be 3040 973d
00000310: 476a 07be 60e4 773d 5025 723d f053 393d
00000320: 5c0d a6bc 0aca 6cbe e853 65bd fde8 5abd
00000330: e6b2 b0bd 26fe 9ebd e1ce 6cbe 6451 7c3d
00000340: 46db 03bd 1081 6dbc 513c 32be 44d7 4abd
00000350: 663b 9ebd 6e75 803d 395b 07be dbf6 21bd
00000360: 24c6 ecbd 9a18 b2bd 4a27 bbbd 04b7 77be
00000370: aa8e c0bd c045 1fbb 2e64 bdbd fd02 7bbd
00000380: 82ec c4bd 9c63 823d 001d 00bc f0d5 46be
00000390: bc94 5fbe a9b8 5abe 4822 8cbd c010 d4bb
000003a0: 6f50 0abe dce1 563d b15f 21be 0fd3 43be
000003b0: b857 ec3c a637 00be 72f4 a0bd 7f95 08be
000003c0: ed5d fcbd 0441 24bd 7c6c 08be 82d8 67be
000003d0: 80d7 063b 7548 afbc 44ab 53be f6d3 c0bd
000003e0: f319 11be 7d34 16be faa0 9ebd eb61 e9bd
000003f0: 2f0c 5bbe 8002 403d fe0a 1bbe 1e66 09be

net.2.bias f4 [64]
-0.22521323 0.05047515 -0.20171396 -0.07247576 0.041787177 -0.22298275 -0.23381326 -0.028361574
-0.02075891 -0.14594421 0.06343881 -0.04365269 -0.15666921 -0.121281624 -0.12162253 0.0034962445
0.007615924 -0.09438174 -0.07280522 0.07781558 0.10755865 -0.06410231 -0.09772555 0.107423775
-0.094161384 -0.08987826 -0.2043394 -0.04190633 0.012265846 0.1043922 -0.10881524 0.04913614
-0.13417444 -0.010984708 0.072845906 -0.019170225 -0.10693155 0.0043816827 -0.2410898 -0.06787131
-0.2298393 -0.083648965 -0.2305692 -0.04874552 0.07054869 -0.013429787 -0.047757685 0.001658609
-0.0656147 -0.011378061 -0.003818907 -0.11876389 -0.10483059 -0.09189912 0.06577575 -0.20981601
0.034890022 0.13181607 0.03288521 0.024722442 0.068644345 0.1111222 0.06235672 -0.10150581
00000000: 4c9e 66be 08bf 4e3d 1b8e 4ebe 2c6e 94bd
00000010: 0829 2b3d 9755 64be be6c 6fbe 8856 e8bc
00000020: 970e aabc 6672 15be 35ec 813d 2acd 32bd
00000030: e56d 20be 8062 f8bd 3c15 f9bd 4021 653b
00000040: 008f f93b 374b c1bd e71a 95bd c65d 9f3d
00000050: b647 dc3d 1248 83bd 5524 c8bd ff00 dc3d
00000060: afd7 c0bd 1812 b8bd 593e 51be f9a5 2bbd
00000070: b0f6 483c 94cb d53d 86da debd fa42 493d
00000080: 0665 09be 34f9 33bc 3c30 953d e00a 9dbc
00000090: eefe dabd 3894 8f3b 3fe0 76be 1d00 8bbd
000000a0: fe5a 6bbe 2650 abbd 551a 6cbe 62a9 47bd
000000b0: d57b 903d 9c08 5cbc 909d 43bd af65 d93a
000000c0: 0061 86bd 0c6b 3abc a146 7abb 7b3a f3bd
000000d0: 6cb1 d6bd 9b35 bcbd 70b5 863d 02da 56be
000000e0: d7e8 0e3d cbfa 063e a4b2 063d b886 ca3c
000000f0: 6895 8c3d 0994 e33d c369 7f3d 47e2 cfbd

net.4.weight f4 [1, 64]
-0.046202656 0.19881938 0.026263354 0.10161776 -0.09263775 0.074066214 0.04054303 -0.11306615
0.090945736 0.035561044 0.1747035 0.107028075 0.109669566 -0.07923558 0.080327496 -0.009028479
0.09693159 -0.003931548 0.1912277 0.08090781 -0.10031371 -0.009793813 0.03912573 0.08126868
0.03369633 -0.067355976 0.026943898 0.09211741 0.10998528 0.11146475 0.09093395 0.11580287
0.08590616 0.16500287 0.17517832 0.09612876 0.068126604 0.035580274 -0.05284778 0.0523963
0.045287862 0.051838722 0.07898336 0.22115254 0.17240283 0.09025247 -0.123228714 0.034389623
0.1577079 0.056726217 0.18493979 0.051541243 0.00027647192 0.16937275 0.15244593 0.018024767
0.086828746 0.17885174 0.15372366 0.08780269 0.17207555 0.2343175 0.17605822 0.036323726
00000000: ff3e 3dbd 4f97 4b3e 3f26 d73c f91c d03d
00000010: dcb8 bdbd 07b0 973d 7310 263d 3a8f e7bd
00000020: c241 ba3d 75a8 113d 79e5 323e 8931 db3d
00000030: 709a e03d 4446 a2bd be82 a43d 30ec 13bc
00000040: 1284 c63d 37d4 80bb 32d1 433e feb2 a53d
00000050: 4671 cdbd 3b76 20bc 4d42 203d 3270 a63d
00000060: 2a05 0a3d eef1 89bd 73b9 dc3c 0da8 bc3d
00000070: f63f e13d a147 e43d 943b ba3d 0e2a ed3d
00000080: 92ef af3d 83f6 283e f261 333e 28df c43d
00000090: f685 8b3d 9fbc 113d ea76 58bd 819d 563d
000000a0: c47f 393d d754 543d 07c2 a13d d075 623e
000000b0: 5e8a 303e 49d6 b83d 565f fcbd 22dc 0c3d
000000c0: 2e7e 213e c059 683d db60 3d3e e91c 533d
000000d0: 6ff3 9039 0d70 2d3e c91a 1c3e ada8 933c
000000e0: 45d3 b13d e924 373e bc69 1d3e e6d1 b33d
000000f0: 9334 303e edf0 6f3e 9b48 343e 30c8 143d
